…
-----------------------------------------------------------+\n</code></pre>\n<p>The model.summary() output on SageMaker is (this is what I want it to be):</p>\n<pre class=\"lang-py prettyprint-override\"><code>Model: &quot;model&quot;\n_________________________________________________________________\n Layer (type)                Output Shape              Param #   \n=================================================================\n input_1 (InputLayer)        [(None, 549, 549, 1)]     0         \n                                                                 \n conv2d (Conv2D)             (None, 549, 549, 1)       7535574   \n                                                                 \n batch_normalization (BatchN  (None, 549, 549, 1)      4         \n ormalization)                                                   \n                                                                 \n conv2d_1 (Conv2D)           (None, 549, 549, 1)       2713158   \n                                                                 \n batch_normalization_1 (Batc  (None, 549, 549, 1)      4         \n hNormalization)                                                 \n                                                                 \n conv2d_2 (Conv2D)           (None, 549, 549, 1)       301950    \n                                                                 \n batch_normalization_2 (Batc  (None, 549, 549, 1)      4         \n hNormalization)                                                 \n                                                                 \n conv2d_3 (Conv2D)           (None, 549, 549, 1)       2713158   \n                                                                 \n=================================================================\nTotal params: 13,263,852\nTrainable params: 13,263,846\nNon-trainable params: 6\n\n</code></pre>\n<p>The model.summary() output on EC2 is (notice the shape change):</p>\n<pre class=\"lang-py prettyprint-override\"><code>\nModel: &quot;model&quot;\n_________________________________________________________________\n Layer (type)                Output Shape              Param #   \n=================================================================\n input_1 (InputLayer)        [(None, 549, 549, 1)]     0         \n                                                                 \n conv2d (Conv2D)             (None, 549, 549, 549)     14274     \n                                                                 \n batch_normalization (BatchN  (None, 549, 549, 549)    2196      \n ormalization)                                                   \n                                                                 \n conv2d_1 (Conv2D)           (None, 549, 549, 549)     2713158   \n                                                                 \n batch_normalization_1 (Batc  (None, 549, 549, 549)    2196      \n hNormalization)                                                 \n                                                                 \n conv2d_2 (Conv2D)           (None, 549, 549, 549)     301950    \n                                                                 \n batch_normalization_2 (Batc  (None, 549, 549, 549)    2196      \n hNormalization)                                                 \n                                                                 \n conv2d_3 (Conv2D)           (None, 549, 549, 549)     2713158   \n                                                                 \n=================================================================\nTotal params: 5,749,128\nTrainable params: 5,745,834\nNon-trainable params: 3,294\n_________________________________________________________________\n</code></pre>\n<p>One other thing that is interesting, if I change my model on the EC2 instance to:</p>\n<pre c
…
model = Model(inp, x)\n\nmodel.compile(loss=tf.keras.losses.binary_crossentropy, optimizer=Adam())\n</code></pre>\n<p>My model.summary() output becomes:</p>\n<pre class=\"lang-py prettyprint-override\"><code>Model: &quot;model_2&quot;\n_________________________________________________________________\n Layer (type)                Output Shape              Param #   \n=================================================================\n input_3 (InputLayer)        [(None, 549, 549, 1)]     0         \n                                                                 \n conv2d_8 (Conv2D)           (None, 549, 549, 1)       26        \n                                                                 \n batch_normalization_6 (Batc  (None, 549, 549, 1)      4         \n hNormalization)                                                 \n                                                                 \n conv2d_9 (Conv2D)           (None, 549, 549, 1)       10        \n                                                                 \n batch_normalization_7 (Batc  (None, 549, 549, 1)      4         \n hNormalization)                                                 \n                                                                 \n conv2d_10 (Conv2D)          (None, 549, 549, 1)       2         \n                                                                 \n batch_normalization_8 (Batc  (None, 549, 549, 1)      4         \n hNormalization)                                                 \n                                                                 \n conv2d_11 (Conv2D)          (None, 549, 549, 1)       10        \n                                                                 \n=================================================================\nTotal params: 60\nTrainable params: 54\nNon-trainable params: 6\n_________________________________________________________________\n</code></pre>\n<p>In the last model the shape is correct but the trainable parameters is very low.</p>\n<p>Any ideas as to why the output shape is different and why this is happening with the filters?</p>",
…
