…
e I have limited import statements to the provided function:<\/p>\n\n<pre><code>import os\nimport io\nimport boto3\nimport sagemaker.amazon.common as smac\n\ndef write_recordio(array, y, prefix, f):\n    # Convert to record protobuf\n    buf = io.BytesIO()\n    smac.write_spmatrix_to_sparse_tensor(array=array, file=buf, labels=y)\n    buf.seek(0)\n\n    fname = os.path.join(prefix, f)\n    boto3.Session().resource('s3').Bucket('bucket_name').Object(fname).upload_fileobj(buf)\n<\/code><\/pre>\n\n<p>An example snippet of the argument <code>array<\/code> which are features:<\/p>\n\n<pre><code>   (0, 990290)  1.0\n   (0, 1266265) 1.0\n   (1, 560338)  1.0\n   (1, 1266181) 1.0\n   (2, 182872)  1.0\n   (2, 1266205) 1.0\n   ...\n<\/code><\/pre>\n\n<p>An example format of y which is my target:<\/p>\n\n<p><code>[1. 1. 1. ... 3. 1. 5.]<\/code><\/p>\n\n<p><code>write_spmatrix_to_sparse_tensor<\/code> works as intended with the above function and input. After training my model, I then use Sagemaker's <a href=\"https:\/\/docs.aws.amazon.com\/sagemaker\/latest\/dg\/batch-transform.html\" rel=\"nofollow noreferrer\">B
…
o-1-xp4eu_1  | Successfully installed cycler-0.10.0 kiwisolver-1.2.0 matplotlib-3.3.0 pillow-7.2.0 pyparsing-2.4.7\nalgo-1-xp4eu_1  | You are using pip version 18.1, however version 20.2b1 is available.\nalgo-1-xp4eu_1  | You should consider upgrading via the 'pip install --upgrade pip' command.\nalgo-1-xp4eu_1  | _________________________________________________________________\nalgo-1-xp4eu_1  | Layer (type)                 Output Shape              Param #   \nalgo-1-xp4eu_1  | =================================================================\nalgo-1-xp4eu_1  | conv2d (Conv2D)              (None, 64, 64, 32)        320       \nalgo-1-xp4eu_1  | _________________________________________________________________\nalgo-1-xp4eu_1  | max_pooling2d (MaxPooling2D) (None, 32, 32, 32)        0         \nalgo-1-xp4eu_1  | _________________________________________________________________\nalgo-1-xp4eu_1  | dropout (Dropout)            (None, 32, 32, 32)        0         \nalgo-1-xp4eu_1  | _________________________________________________________________\nalgo-1-xp4eu_1  | conv2d_1 (Conv2D)            (None, 32, 32, 64)        18496     \nalgo-1-xp4eu_1  | _________________________________________________________________\nalgo-1-xp4eu_1  | max_pooling2d_1 (MaxPooling2 (None, 16, 16, 64)        0         \nalgo-1-xp4eu_1  | _________________________________________________________________\nalgo-1-xp4eu_1  | dropout_1 (Dropout)          (None, 16, 16, 64)        0         \nalgo-1-xp4eu_1  | _________________________________________________________________\nalgo-1-xp4eu_1  | conv2d_2 (Conv2D)            (None, 16, 16, 128)       73856     \nalgo-1-xp4eu_1  | _________________________________________________________________\nalgo-1-xp4eu_1  | max_pooling2d_2 (MaxPooling2 (None, 8, 8, 128)         0         \nalgo-1-xp4eu_1  | _________________________________________________________________\nalgo-1-xp4eu_1  | dropout_2 (Dropout)          (None, 8, 8, 128)         0         \nalgo-1-xp4eu_1  | _________________________________________________________________\nalgo-1-xp4eu_1  | conv2d_3 (Conv2D)            (None, 8, 8, 256)         295168    \nalgo-1-xp4eu_1  | _________________________________________________________________\nalgo-1-xp4eu_1  | max_pooling2d_3 (MaxPooling2 (None, 4, 4, 256)         0         \nalgo-1-xp4eu_1  | _________________________________________________________________\nalgo-1-xp4eu_1  | flatten (Flatten)            (None, 4096)              0         \nalgo-1-xp4eu_1  | _________________________________________________________________\nalgo-1-xp4eu_1  | dense (Dense)                (None, 128)               524416    \nalgo-1-xp4eu_1  | _________________________________________________________________\nalgo-1-xp4eu_1  | dropout_3 (Dropout)          (None, 128)               0         \nalgo-1-xp4eu_1  | _________________________________________________________________\nalgo-1-xp4eu_1  | dense_1 (Dense)              (None, 1)                 129       \nalgo-1-xp4eu_1  | =================================================================\nalgo-1-xp4eu_1  | Total params: 912,385\nalgo-1-xp4eu_1  | Trainable params: 912,385\nalgo-1-xp4eu_1  | Non-trainable params: 0\nalgo-1-xp4eu_1  | _________________________________________________________________\nalgo-1-xp4eu_1  | None\nalgo-1-xp4eu_1  | Train on 26 samples, validate on 2 samples\nalgo-1
…
