…
d in as: pebs (use `wandb login --relogin` to force relogin)\nwandb: Tracking run with wandb version 0.10.26\nwandb: Syncing run aquarium5\nwandb: \u2b50\ufe0f View project at https:\/\/wandb.ai\/pebs\/ip5\nwandb:  View run at https:\/\/wandb.ai\/pebs\/ip5\/runs\/1c2j80ii\nwandb: Run data is saved locally in \/usr\/src\/app\/wandb\/run-20210419_102642-1c2j80ii\nwandb: Run `wandb offline` to turn off syncing.\n\nOverriding model.yaml nc=80 with nc=7\n\n                 from  n    params  module                                  arguments                     \n  0                -1  1      3520  models.common.Focus                     [3, 32, 3]                    \n  1                -1  1     18560  models.common.Conv                      [32, 64, 3, 2]                \n  2                -1  1     18816  models.common.C3                        [64, 64, 1]                   \n  3                -1  1     73984  models.common.Conv                      [64, 128, 3, 2]               \n  4                -1  1    156928  models.common.C3                        [128, 128, 3]                 \n  5                -1  1    295424  models.common.Conv                      [128, 256, 3, 2]              \n  6                -1  1    625152  models.common.C3                        [256, 256, 3]                 \n  7                -1  1   1180672  models.common.Conv                      [256, 512, 3, 2]              \n  8                -1  1    656896  models.common.SPP                       [512, 512, [5, 9, 13]]        \n  9                -1  1   1182720  models.common.C3                        [512, 512, 1, False]          \n 10                -1  1    131584  models.common.Conv                      [512, 256, 1, 1]              \n 11                -1  1         0  torch.nn.modules.upsampling.Upsample    [None, 2, 'nearest']          \n 12           [-1, 6]  1         0  models.common.Concat                    [1]                           \n 13                -1  1    361984  models.common.C3                        [512, 256, 1, False]          \n 14                -1  1     33024  models.common.Conv                      [256, 128, 1, 1]              \n 15                -1  1         0  torch.nn.modules.upsampling.Upsample    [None, 2, 'nearest']          \n 16           [-1, 4]  1         0  models.common.Concat                    [1]                           \n 17                -1  1     90880  models.common.C3                        [256, 128, 1, False]          \n 18                -1  1    147712  models.common.Conv                      [128, 128, 3, 2]              \n 19          [-1, 14]  1         0  models.common.Concat                    [1]                           \n 20                -1  1    296448  models.common.C3                        [256, 256, 1, False]          \n 21                -1  1    590336  models.common.Conv                      [256, 256, 3, 2]              \n 22          [-1, 10]  1         0  models.common.Concat                    [1]                           \n 23                -1  1   1182720  models.common.C3                        [512, 512, 1, False]          \n 24      [17, 20, 23]  1     32364  models.yolo.Detect                      [7, [[10, 13, 16, 30, 33, 23], [30, 61, 62, 45, 59, 119], [116, 90, 156, 198, 373, 326]], [128, 256, 512]]\n[W NNPACK.cpp:80] Could not initialize NNPACK! Reason: Unsupported hardware.\nModel Summary: 283 layers, 7079724 parameters, 7079724 gradients, 16.4 GFLOPS\n\nTransferred 356\/362 items
…
