…
|\n|    0   N\/A  N\/A     26391      C   python3.8                        1921MiB |\n+-----------------------------------------------------------------------------+\n\n\nThe model.summary() output on SageMaker is:\n\nModel: \"model\"\n_________________________________________________________________\n Layer (type)                Output Shape              Param #   \n=================================================================\n input_1 (InputLayer)        [(None, 549, 549, 1)]     0         \n                                                                 \n conv2d (Conv2D)             (None, 549, 549, 1)       7535574   \n                                                                 \n batch_normalization (BatchN  (None, 549, 549, 1)      4         \n ormalization)                                                   \n                                                                 \n conv2d_1 (Conv2D)           (None, 549, 549, 1)       2713158   \n                                                                 \n batch_normalization_1 (Batc  (None, 549, 549, 1)      4         \n hNormalization)                                                 \n                                                                 \n conv2d_2 (Conv2D)           (None, 549, 549, 1)       301950    \n                                                                 \n batch_normalization_2 (Batc  (None, 549, 549, 1)      4         \n hNormalization)                                                 \n                                                                 \n conv2d_3 (Conv2D)           (None, 549, 549, 1)       2713158   \n                                                                 \n=================================================================\nTotal params: 13,263,852\nTrainable params: 13,263,846\nNon-trainable params: 6\n\n\nThe model.summary() output on EC2 is (notice the shape change):\n\n\nModel: \"model\"\n_________________________________________________________________\n Layer (type)                Output Shape              Param #   \n=================================================================\n input_1 (InputLayer)        [(None, 549, 549, 1)]     0         \n                                                                 \n conv2d (Conv2D)             (None, 549, 549, 549)     14274     \n                                                                 \n batch_normalization (BatchN  (None, 549, 549, 549)    2196      \n ormalization)                                                   \n                                                                 \n conv2d_1 (Conv2D)           (None, 549, 549, 549)     2713158   \n                                                                 \n batch_normalization_1 (Batc  (None, 549, 549, 549)    2196      \n hNormalization)                                                 \n                                                                 \n conv2d_2 (Conv2D)           (None, 549, 549, 549)     301950    \n                                                                 \n batch_normalization_2 (Batc  (None, 549, 549, 549)    2196      \n hNormalization)                                                 \n                                                                 \n conv2d_3 (Conv2D)           (None, 549, 549, 549)     2713158   \n                                                                 \n=================================================================\nTotal params: 5,749,128\nTrainable params: 5,745,834\nNon-trainable params: 3,294\n_________________________________________________________________\n\nOne other thing that is interesting, if I change my model on the EC2 instance to:\n\ninp = layers.Input(shape
…
ters=1, kernel_size=(3, 3), padding=\"same\", activation=\"sigmoid\")(x)\n\nmodel = Model(inp, x)\n\nmodel.compile(loss=tf.keras.losses.binary_crossentropy, optimizer=Adam())\n\nMy model.summary() output becomes:\n\nModel: \"model_2\"\n_________________________________________________________________\n Layer (type)                Output Shape              Param #   \n=================================================================\n input_3 (InputLayer)        [(None, 549, 549, 1)]     0         \n                                                                 \n conv2d_8 (Conv2D)           (None, 549, 549, 1)       26        \n                                                                 \n batch_normalization_6 (Batc  (None, 549, 549, 1)      4         \n hNormalization)                                                 \n                                                                 \n conv2d_9 (Conv2D)           (None, 549, 549, 1)       10        \n                                                                 \n batch_normalization_7 (Batc  (None, 549, 549, 1)      4         \n hNormalization)                                                 \n                                                                 \n conv2d_10 (Conv2D)          (None, 549, 549, 1)       2         \n                                                                 \n batch_normalization_8 (Batc  (None, 549, 549, 1)      4         \n hNormalization)                                                 \n                                                                 \n conv2d_11 (Conv2D)          (None, 549, 549, 1)       10        \n                                                                 \n=================================================================\nTotal params: 60\nTrainable params: 54\nNon-trainable params: 6\n_________________________________________________________________\n\nIn the last model the shape is similar to SageMaker but the trainable parameters are very low.\n\nAny ideas as to why the output shape is different and why this is happening with the filters? When I run this model on my personal computer, the shape is the same as EC2. I think there might be an issue with SageMaker.",
…
