…
pre><code>resp = client.predict(\n    endpoint=endpoint_path,\n    instances=input_data.toList(),\n    parameters=parameters,\n)\n\ninput must be 4-dimensional[1,570,33]\\n\\t [[{{function_node __inference__wrapped_model_28143}}{{node sequential\/conv2d\/BiasAdd}}]]\n<\/code><\/pre>\n<p>Here is the summary of of the model<\/p>\n<pre><code>Model: &quot;sequential&quot;\n_________________________________________________________________\nLayer (type)                Output Shape              Param #   \n=================================================================\nconv2d (Conv2D)             (None, 570, 33, 32)       320       \n                                                                \nbatch_normalization (BatchN  (None, 570, 33, 32)      128       \normalization)                                                   \n                                                                \nactivation (Activation)     (None, 570, 33, 32)       0         \n                                                                \nconv2d_1 (Conv2D)           (None, 570, 33, 32)       9248      \n                                                                \nbatch_normalization_1 (Batc  (None, 570, 33, 32)      128       \nhNormalization)                                                 \n                                                                \nactivation_1 (Activation)   (None, 570, 33, 32)       0         \n                                                                \nconv2d_2 (Conv2D)           (None, 570, 33, 32)       9248      \n                                                                \nbatch_normalization_2 (Batc  (None, 570, 33, 32)      128       \nhNormalization)                                                 \n                                                                \nactivation_2 (Activation)   (None, 570, 33, 32)       0         \n                                                                \nconv2d_3 (Conv2D)           (None, 285, 17, 64)       18496     \n                                                                \nbatch_normalization_3 (Batc  (None, 285, 17, 64)      256       \nhNormalization)                                                 \n                                                                \nactivation_3 (Activation)   (None, 285, 17, 64)       0         \n                                                                \nconv2d_4 (Conv2D)           (None, 285, 17, 64)       36928     \n                                                                \nbatch_normalization_4 (Batc  (None, 285, 17, 64)      256       \nhNormalization)                                                 \n                                                                \nactivation_4 (Activation)   (None, 285, 17, 64)       0         \n                                                                \nconv2d_5 (Conv2D)           (None, 285, 17, 64)       36928     \n                                                                \nbatch_normalization_5 (Batc  (None, 285, 17, 64)      256       \nhNormalization)                                                 \n                                                                \nactivation_5 (Activation)   (None, 285, 17, 64)       0         \n                                                                \nconv2d_6 (Conv2D)           (None, 285, 17, 64)       36928     \n                                                                \nbatch_normalization_6 (Batc  (None, 285, 17, 64)      256       \nhNormalization)                                                 \n                                                                \nactivation_6 (Activation)   (None, 285, 17, 64)       0         \n                                                                \nconv2d_7 (Conv2D)           (None, 143, 9, 96)        55392     \n                                                                \nbatch_normalization_7 (Batc  (None, 143, 9, 96)       384       \nhNormalization)                                                 \n                                                                \nactivation_7 (Activation)   (None, 143, 9, 96)        0         \n                                                                \nconv2d_8 (Conv2D)           (None, 143, 9, 96)        83040     \n                                                                \nbatch_normalization_8 (Batc  (None, 143, 9, 96)       384       \nhNormalization)                                                 \n                                                                \nactivation_8 (Activation)   (None, 143, 9, 96)        0         \n                                                                \nconv2d_9 (Conv2D)           (None, 143, 9, 96)        83040     \n                                                                \nbatch_normalization_9 (Batc  (None, 143, 9, 96)       384       \nhNormalization)                                                 \n                                                                \nactivation_9 (Activation)   (None, 143, 9, 96)        0         \n                                                                \nconv2d_10 (Conv2D)          (None, 143, 9, 96)        83040     \n                                                                \nbatch_normalization_10 (Bat  (None, 143, 9, 96)       384       \nchNormalization)                                                \n                                                                \nactivation_10 (Activation)  (None, 143, 9, 96)        0         \n                                                                \nconv2d_11 (Conv2D)          (None, 72, 5, 128)        110720    \n                                                                \nbatch_normalization_11 (Bat  (None, 72, 5, 128)       512       \nchNormalization)                                                \n                                                                \nactivation_11 (Activation)  (None, 72, 5, 128)        0         \n                                                                \nconv2d_12 (Conv2D)          (None, 72, 5, 128)        147584    \n                                                                \nbatch_normalization_12 (Bat  (None, 72, 5, 128)       512       \nchNormalization)                                                \n                                                                \nactivation_12 (Activation)  (None, 72, 5, 128)        0         \n                                                                \nconv2d_13 (Conv2D)          (None, 72, 5, 128)        147584    \n                                                                \nbatch_normalization_13 (Bat  (None, 72, 5, 128)       512       \nchNormalization)                                                \n                                                                \nactivation_13 (Activation)  (None, 72, 5, 128)        0         \n                                                                \nconv2d_14 (Conv2D)          (None, 72, 5, 128)        147584    \n                                                                \nbatch_normalization_14 (Bat  (None, 72, 5, 128)       512       \nchNormalization)                                                \n                                                                \nactivation_14 (Activation)  (None, 72, 5, 128)        0         \n                                                                \nconv2d_15 (Conv2D)          (None, 36, 3, 160)        184480    \n                                                                \nbatch_normalization_15 (Bat  (None, 36, 3, 160)       640       \nchNormalization)                                                \n                                                                \nactivation_15 (Activation)  (None, 36, 3, 160)        0         \n                                                                \nconv2d_16 (Conv2D)          (None, 36, 3, 160)        230560    \n                                                                \nbatch_normalization_16 (Bat  (None, 36, 3, 160)       640       \nchNormalization)                                                \n                                                                \nactivation_16 (Activation)  (None, 36, 3, 160)        0         \n                                                                \nconv2d_17 (Conv2D)          (None, 36, 3, 160)        230560    \n                                                                \nbatch_normalization_17 (Bat  (None, 36, 3, 160)       640       \nchNormalization)                                                \n                                                                \nactivation_17 (Activation)  (None, 36, 3, 160)        0         \n                                                                \nconv2d_18 (Conv2D)          (None, 36, 3, 160)        230560    \n                                                                \nbatch_normalization_18 (Bat  (None, 36, 3, 160)       640       \nchNormalization)                                                \n                                                                \nactivation_18 (Activation)  (None, 36, 3, 160)        0         \n                                                                \nconv2d_19 (Conv2D)          (None, 18, 2, 192)        276672    \n                                                                \nbatch_normalization_19 (Bat  (None, 18, 2, 192)       768       \nchNormalization)                                                \n                                                                \nactivation_19 (Activation)  (None, 18, 2, 192)        0         \n                                                                \nconv2d_20 (Conv2D)          (None, 18, 2, 192)        331968    \n                                                                \nbatch_normalization_20 (Bat  (None, 18, 2, 192)       768       \nchNormalization)                                                \n                                                                \nactivation_20 (Activation)  (None, 18, 2, 192)        0         \n                                                                \nconv2d_21 (Conv2D)          (None, 18, 2, 192)        331968    \n                                                                \nbatch_normalization_21 (Bat  (None, 18, 2, 192)       768       \nchNormalization)                                                \n                                                                \nactivation_21 (Activation)  (None, 18, 2, 192)        0         \n                                                                \nconv2d_22 (Conv2D)          (None, 18, 2, 192)        331968    \n                                                                \nbatch_normalization_22 (Bat  (None, 18, 2, 192)       768       \nchNormalization)                                                \n                                                                \nactivation_22 (Activation)  (None, 18, 2, 192)        0         \n                                                                \nconv2d_23 (Conv2D)          (None, 9, 1, 224)         387296    \n                                                                \nbatch_normalization_23 (Bat  (None, 9, 1, 224)        896       \nchNormalization)                                                \n                                                                \nactivation_23 (Activation)  (None, 9, 1, 224)         0         \n                                                                \nreshape (Reshape)           (None, 9, 224)            0         \n                                                                \nmasking (Masking)           (None, 9, 224)            0         \n                                                                \nlambda (Lambda)             (None, 224)               0         \n                                                                \ndense (Dense)               (None, 4)                 900       \n                                                                \n=================================================================\nTotal params: 3,554,532\nTrainable params: 3,548,772\nNon-trainable params: 5,760\n<\/code><\/pre>\n<p>I've got a classic case of 'It works on my machine' here and could use any input or help :)<\/p>",
        "Question_answer_count":1,
        "Question_comment_count":0,
…
