…
talled as catkin package, RigidTransform ros me\nthods will be unavailable\nwandb: Currently logged in as: ******. Use `wandb log\nin --relogin` to force relogin\nwandb: Tracking run with wandb version 0.13.5\nwandb: Run data is saved locally in ./wandb/run-20221116_134736-3a4w8w3w\nwandb: Run `wandb offline` to turn off syncing.\nwandb: Syncing run wandering-music-644\nAuto select gpus: [0]\nGPU available: True (cuda), used: True\nTPU available: False, using: 0 TPU cores\nIPU available: False, using: 0 IPUs\nHPU available: False, using: 0 HPUs\nConditionalAE(\n  (encoder): Sequential(\n    (0): Linear(in_features=8, out_features=256, bias=True)\n    (1): ReLU()\n    (2): Linear(in_features=256, out_features=512, bias=True)\n    (3): ReLU()\n    (4): Linear(in_features=512, out_features=256, bias=True)\n    (5): ReLU()\n    (6): Linear(in_features=256, out_features=2, bias=True)\n  )\n  (decoder): Sequential(\n    (0): Linear(in_features=6, out_features=256, bias=True)\n    (1): ReLU()\n    (2): Linear(in_features=256, out_features=512, bias=True)\n    (3): ReLU()\n    (4): Linear(in_features=512, out_features=256, bias=True)\n    (5): ReLU()\n    (6): Linear(in_features=256, out_features=4, bias=True)\n  )\n  (dropout): Dropout(p=0.5, inplace=False)\n)\nLOCAL_RANK: 0 - CUDA_VISIBLE_DEVICES: [0,1,2]\nLoading `train_dataloader` to estimate number of stepping batches.\n/home3/shivam/miniconda3/envs/l_a/lib/python3.10/site-packages/pytorch_lightning\n/trainer/connectors/data_connector.py:236: PossibleUserWarning: The dataloader,\ntrain_dataloader, does no
…
rom triggering.</p>\n<p>I suggest you raise this issue with W&amp;B Support via the small gray bubble in the bottom-right of the screen on <a href=\"https://wandb.ai\">https://wandb.ai</a>. If you don\u2019t see a bubble, turn off any ad-blockers or email <a href=\"mailto:support@wandb.com\">support@wandb.com</a>.</p>",
				"Answer_has_accepted": false
			},
			{
				"Answer_created_time": "2022-02-12T21:15:53.463Z",
				"Answer_body": "<p>I get the same error message.</p>\n<pre><code class=\"lang-auto\">DcnPool553Model(\n  (encoder): DcnPool553ModelEncoder(\n    (conv1): Sequential(\n      (0): Conv3d(1, 32, kernel_size=(5, 5, 5), stride=(1, 1, 1))\n      (1): LeakyReLU(negative_slope=0.01)\n    )\n    (conv2): Sequential(\n      (0): Conv3d(32, 64, kernel_size=(5, 5, 5), stride=(1, 1, 1))\n      (1): LeakyReLU(negative_slope=0.01)\n    )\n    (pool1): MaxPool3d(kernel_size=(2, 2, 2), stride=(2, 2, 2), padding=0, dilation=1, ceil_mode=False)\n    (conv3): Sequential(\n      (0): DeformConv3d(\n        (zero_padding): ConstantPad3d(padding=(0, 0, 0, 0, 0, 0), value=0)\n        (conv_kernel): Conv3d(1728, 128, kernel_size=(1, 1, 1), stride=(1, 1, 1))\n        (offset_conv_kernel): Conv3d(64, 81, kernel_size=(3, 3, 3), stride=(1, 1, 1))\n      )\n      (1): LeakyReLU(negative_slope=0.01)\n    )\n    (pool2): MaxPool3d(kernel_size=(2, 2, 2), stride=(2, 2, 2), padding=0, dilation=1, ceil_mode=False)\n    (fc1): Linear(in_features=3456, out_features=128, bias=True)\n    (relu): LeakyReLU(negative_slope=0.01)\n    (norm): BatchNorm1d(128, eps=1e-05, momentum=0.1, affine=True, track_running_stats=True)\n    (drop): Dropout(p=0.15, inplace=False)\n    (fc2): Linear(in_features=128, out_features=128, bias=True)\n  )\n  (decoder): DcnPool553ModelDecoder(\n    (fc2): Linear(in_features=128, out_features=128, bias=True)\n    (drop): Dropout(p=0.15, inplace=False)\n    (norm): BatchNorm1d(128, eps=1e-05, momentum=0.1, affine=True, track_running_stats=True)\n    (relu): LeakyReLU(negative_slope=0.01)\n    (fc1): Linear(in_features=128, out_features=3456, bias=True)\n    (pool2): MaxUnpool3d(kernel_size=(2, 2, 2), stride=(2, 2, 2), padding=(0, 0, 0))\n    (conv3): Sequential(\n      (0): LeakyReLU(negative_slope=0.01)\n      (1): DeformConv3d(\n        (zero_padding): ConstantPad3d(padding=(2, 2, 2, 2, 2, 2), value=0)\n        (conv_kernel): Conv3d(3456, 64, kernel_size=(1, 1, 1), stride=(1, 1, 1))\n        (offset_conv_kernel): Conv3d(128, 81, kernel_size=(3, 3, 3), stride=(1, 1, 1), padding=(2, 2, 2))\n      )\n    )\n    (pool1): MaxUnpool3d(kernel_size=(2, 2, 2), stride=(2, 2, 2), padding=(0, 0, 0))\n    (conv2): Sequential(\n      (0): LeakyReLU(negative_slope=0.01)\n      (1): ConvTranspose3d(64, 32, kernel_size=(5, 5, 5), stride=(1, 1, 1))\n    )\n    (conv1): Sequential(\n      (0): LeakyReLU(negative_slope=0.01)\n      (1): ConvTranspose3d(32, 1, kernel_size=(5, 5, 5), stride=(1, 1, 1))\n    )\n  )\n)\nDevice used for training: cuda:0\n  0% 0/100 [00:00&lt;?, ?it/s]\n\nwandb: Waiting for W&amp;B process to finish, PID 859... (failed 1). Press ctrl-c to abort syncing.\nwandb:                                                                                \nwandb: Run history:\nwandb:   train_epoch \u2581\u2581\u2581\nwandb:    train_l
…
